policy: Using default 'constant'
layer     filters    size              input                output
    0 resample(down)       2x  2   256 x  32 x   4   ->   128 x  16 x   4
    1 conv     16  3 x 3 / 1   128 x  16 x   4   ->   128 x  16 x  16  0.002 BFLOPs
    2 max          2 x 2 / 2   128 x  16 x  16   ->    64 x   8 x  16
    3 conv     32  3 x 3 / 1    64 x   8 x  16   ->    64 x   8 x  32  0.005 BFLOPs
    4 max          2 x 2 / 2    64 x   8 x  32   ->    32 x   4 x  32
    5 conv     16  1 x 1 / 1    32 x   4 x  32   ->    32 x   4 x  16  0.000 BFLOPs
    6 conv    128  3 x 3 / 1    32 x   4 x  16   ->    32 x   4 x 128  0.005 BFLOPs
    7 conv     16  1 x 1 / 1    32 x   4 x 128   ->    32 x   4 x  16  0.001 BFLOPs
    8 conv    128  3 x 3 / 1    32 x   4 x  16   ->    32 x   4 x 128  0.005 BFLOPs
    9 max          2 x 2 / 2    32 x   4 x 128   ->    16 x   2 x 128
   10 conv     32  1 x 1 / 1    16 x   2 x 128   ->    16 x   2 x  32  0.000 BFLOPs
   11 conv    256  3 x 3 / 1    16 x   2 x  32   ->    16 x   2 x 256  0.005 BFLOPs
   12 conv     32  1 x 1 / 1    16 x   2 x 256   ->    16 x   2 x  32  0.001 BFLOPs
   13 conv    256  3 x 3 / 1    16 x   2 x  32   ->    16 x   2 x 256  0.005 BFLOPs
   14 max          2 x 2 / 2    16 x   2 x 256   ->     8 x   1 x 256
   15 conv     64  1 x 1 / 1     8 x   1 x 256   ->     8 x   1 x  64  0.000 BFLOPs
   16 conv    512  3 x 3 / 1     8 x   1 x  64   ->     8 x   1 x 512  0.005 BFLOPs
   17 conv     64  1 x 1 / 1     8 x   1 x 512   ->     8 x   1 x  64  0.001 BFLOPs
   18 conv    512  3 x 3 / 1     8 x   1 x  64   ->     8 x   1 x 512  0.005 BFLOPs
   19 conv    128  1 x 1 / 1     8 x   1 x 512   ->     8 x   1 x 128  0.001 BFLOPs
   20 conv   1024  1 x 1 / 1     8 x   1 x 128   ->     8 x   1 x1024  0.002 BFLOPs
   21 deconv2  128  1 x 1 / ( 1  1)     8 x   1 x1024   ->     8 x   1 x 128  0.002 BFLOPs

   22 route  21 19  8 x 1 x 128 -> 8 x 1 x 256
   23 deconv2  512  1 x 1 / ( 1  1)     8 x   1 x 256   ->     8 x   1 x 512  0.002 BFLOPs

   24 route  23 18  8 x 1 x 512 -> 8 x 1 x 1024
   25 deconv2   64  3 x 3 / ( 1  1)     8 x   1 x1024   ->     8 x   1 x  64  0.009 BFLOPs
…
